suitcase_learning/trained_model_new/exported/policy.onnx (onnx, 199910 bytes, 7 tensors)

actor.0.weight f4 [256, 32]
0.6042821 0.6165417 0.43210253 0.6807455 -0.095167235 0.19315003 -0.070760444 2.140866
0.23717566 0.085457295 0.2362644 0.386909 0.18985462 -0.010414536 -0.012306331 0.043526486
0.11360159 0.007293445 -0.071510024 0.10163729 -0.16888848 -0.17763498 -0.10029929 0.21610186
-0.23208213 -0.44322824 0.0017540894 -0.029640704 -0.12978521 -0.32375917 -0.010069761 -0.33184266
0.6007802 0.49901223 0.43910858 0.6184301 0.011083276 0.21820216 0.97575915 0.28160518
0.25752795 0.1844937 0.5372507 -0.10905893 0.123793036 -0.19437927 0.041757807 -0.17623012
0.0075630685 -0.24246697 -0.22092992 -0.3725338 -0.28384116 -0.01567774 -0.03770078 -0.16075104
0.101397246 0.04103992 0.13488266 -0.4656109 0.054928917 -0.064668864 0.105099164 0.01604332
-0.24030639 -0.32707196 -0.12455317 -0.3905855 0.02050788 -0.40493372 -0.13692942 -0.26576617
-0.07880974 -0.42891812 -0.23641865 -0.28714445 -0.2481294 0.009458826 0.051226817 0.10513382
-0.07222053 -0.5155048 0.121967316 -0.059933204 -0.0725793 -0.45401058 0.08568281 -0.36152452
-0.028440662 -0.21828474 0.017622903 -0.062101733 0.041518424 0.049002435 -0.19725455 -0.1375936
-0.04068495 -0.38272962 -0.49019527 -0.6856514 -0.559653 -0.6673587 -0.64212614 -0.33302334
0.5076267 -0.32898027 -0.17847551 0.10113094 -0.24374108 -0.5180689 0.2262719 0.22469738
-0.10068606 0.22137526 -0.16846815 -0.362677 -0.04240369 0.16678044 -0.3013778 -0.40307662
-0.22770706 0.36993706 -0.15271458 -0.34545705 -0.23228335 -0.19907874 -0.16135983 -0.23207048
0.27668223 0.055762105 0.24072471 0.10661645 -1.3547764 -0.39053887 0.22960646 -1.2647618
-0.063810766 0.28785068 0.7211957 0.21778017 0.055134464 -0.16146564 0.048837967 -0.34115133
-0.056067303 -0.31536353 0.0023762118 -0.31025988 0.08076249 -0.6785724 -0.05418528 -0.2971334
0.11292058 -0.4676581 0.05143898 -0.53476804 -0.02037231 -0.042423543 -0.06556914 -0.25590634
-0.21011339 -0.3164041 -0.32041228 -0.48873976 0.08598942 0.33409438 -0.15372573 0.46749434
-0.030059407 0.19584452 -0.4312238 -0.26660448 0.12868953 -0.2229002 -0.33937305 0.0015018686
-0.066446304 1.8669281e-05 0.029427072 -0.36238685 -0.01056098 -0.12143552 0.01023194 -0.20939817
0.1335505 0.01716733 0.07775359 -0.228776 0.062447973 0.13097262 0.09455558 0.05174385
1.2161065 1.2284868 1.0325685 1.0116944 -0.09254254 -0.6870209 0.013733189 0.49695763
0.4320992 -0.33260375 0.68036646 -0.2030943 -0.11472489 -0.015875766 -0.18760559 -0.13987626
0.06573342 0.08111888 0.05143856 0.052817263 -0.24465938 -0.06734111 -0.5001881 0.35055915
0.16692503 0.0681338 0.19761017 -0.17902435 -0.13890882 0.13038073 -0.08459864 -0.051860686
0.41093582 0.81696093 0.77530056 0.6796591 0.65103406 -0.3213771 -0.10268859 0.308516
1.6524217 -0.25445062 -0.3034539 -0.2482858 -0.16541626 -0.23233959 -0.46617123 0.03655651
-0.15703711 -0.09281846 -0.45580906 -0.19256547 -0.3144747 -0.2687693 -0.13237694 -0.019238072
-0.18186486 0.1083171 -0.0777507 -0.42594427 -0.27907172 -0.3053323 -0.30562305 -0.43605414
00000000: 3bb2 1a3f add5 1d3f 8b3c dd3e 5645 2e3f
00000010: 0ae7 c2bd 1fc9 453e daea 90bd f303 0940
00000020: 2dde 723e 3c04 af3d 4bef 713e f018 c63e
00000030: 4069 423e bba1 2abc 7ea0 49bc d448 323d
00000040: f3a7 e83d dafd ee3b d973 92bd 3627 d03d
00000050: 1af1 2cbe f2e5 35be b769 cdbd ce49 5d3e
00000060: f0a6 6dbe d0ee e2be 79e9 e53a 10d1 f2bc
00000070: 6ae6 04be c3c3 a5be a4fb 24bc 48e7 a9be
00000080: bbcc 193f 887e ff3e d7d2 e03e 6f51 1e3f
00000090: a196 353c 6370 5f3e 5acb 793f 8e2e 903e
000000a0: b4da 833e ebeb 3c3e 4389 093f 4a5a dfbd
000000b0: 3487 fd3d 5c0b 47be 3c0a 2b3d ab75 34be
000000c0: 9ed3 f73b 4349 78be 743b 62be c0bc bebe
000000d0: a153 91be 9b6e 80bc 226c 1abd ec9b 24be
000000e0: 5ca9 cf3d 7a19 283d ae1e 0a3e 8d64 eebe
000000f0: 25fd 603d 1c71 84bd 3b3e d73d 486d 833c
00000100: e112 76be fa75 a7be bb15 ffbd d3fa c7be
00000110: 2400 a83c 7953 cfbe 3a37 0cbe 8112 88be
00000120: 0067 a1bd 289b dbbe bb17 72be 9904 93be
00000130: a215 7ebe 31f9 1a3c 36d3 513d 6650 d73d
00000140: 5be8 93bd 1ff8 03bf 00ca f93d 857c 75bd
00000150: 75a4 94bd 1374 e8be 787a af3d be19 b9be
00000160: 64fc e8bc 0986 5fbe e85d 903c 635e 7ebd
00000170: 390f 2a3d c7b6 483d 19fd 49be 56e5 0cbe
00000180: 43a5 26bd 23f5 c3be e0fa fabe da86 2fbf
00000190: 6b45 0fbf 05d8 2abf 6162 24bf 0982 aabe
000001a0: d3f3 013f 1a70 a8be 49c2 36be bd1d cf3d
000001b0: 4397 79be 2aa0 04bf d2b3 673e 1217 663e
000001c0: 7e34 cebd 32b0 623e ea82 2cbe cdb0 b9be
000001d0: 7eaf 2dbd 7ec8 2a3e 314e 9abe 0f60 cebe
000001e0: 0a2c 69be 6468 bd3e 3661 1cbe bfdf b0be
000001f0: b0db 6dbe 4cdb 4bbe 833b 25be e2a3 6dbe
00000200: 4ba9 8d3e ce66 643d 8a80 763e ba59 da3d
00000210: 5069 adbf b6f4 c7be f51d 6b3e b7e3 a1bf
00000220: 38af 82bd 2a61 933e 48a0 383f c401 5f3e
00000230: add4 613d 4057 25be 520a 483d 63ab aebe
00000240: d4a6 65bd 5477 a1be 38ba 1b3b 62da 9ebe
00000250: ce66 a53d ecb6 2dbf 62f1 5dbd de21 98be
00000260: e842 e73d e270 efbe aeb1 523d 8fe6 08bf
00000270: d5e3 a6bc 4fc4 2dbd 1d49 86bd 2806 83be
00000280: f727 57be b8ff a1be 140d a4be 193c fabe
00000290: 391b b03d 6b0e ab3e 476a 1dbe 6b5b ef3e
000002a0: 253f f6bc 778b 483e 5ec9 dcbe 6280 88be
000002b0: 30c7 033e f33f 64be 4ec2 adbe 59da c43a
000002c0: 0015 88bd fa9b 9c37 0b11 f13c c58a b9be
000002d0: f607 2dbc 30b3 f8bd dea3 273c 796c 56be
000002e0: 76c1 083e 80a2 8c3c 463d 9f3d 4144 6abe
000002f0: 72c9 7f3d b01d 063e 5ba6 c13d 5cf1 533d
00000300: 61a9 9b3f 0e3f 9d3f 342b 843f 347f 813f
00000310: f186 bdbd 9ae0 2fbf 2b01 613c 3b71 fe3e
00000320: 1b3c dd3e 0a4b aabe 7f2c 2e3f f4f7 4fbe
00000330: e2f4 eabd e50d 82bc ae1b 40be b93b 0fbe
00000340: 3e9f 863d a821 a63d 3db1 523d ea56 583d
00000350: fd87 7abe 23ea 89bd 540c 00bf 7d7c b33e
00000360: 65ee 2a3e bc89 8b3d 525a 4a3e 2952 37be
00000370: 1d3e 0ebe 8782 053e 0d42 adbd df6b 54bd
00000380: 2e66 d23e 5a24 513f 197a 463f 24fe 2d3f
00000390: 2baa 263f 8a8b a4be 654e d2bd cff5 9d3e
000003a0: 8e82 d33f 5a47 82be 4f5e 9bbe a23e 7ebe
000003b0: e162 29be 6eea 6dbe ffad eebe 47bc 153d
000003c0: 56ce 20be 9b17 bebd ce5f e9be e22f 45be
000003d0: d402 a1be 219c 89be d28d 07be 2999 9dbc
000003e0: c83a 3abe 5bd5 dd3d c23b 9fbd 5e15 dabe
000003f0: 7de2 8ebe 8454 9cbe a07a 9cbe 7d42 dfbe

actor.0.bias f4 [256]
-0.007235922 -0.1281269 0.15063767 -0.20873134 -0.17199807 0.04410666 -0.06475038 -0.10728909
0.023183314 -0.23159271 -0.09687243 -0.0011705906 -0.033407655 -0.1595042 0.061566226 -0.23933175
0.015331221 -0.056648836 0.38348103 -0.021892777 -0.18725474 -0.0480879 0.050715547 -0.08092681
0.16327405 -0.15463889 -0.058218118 0.010495363 -0.030454751 -0.13324116 -0.31426126 -0.064745955
0.06859682 0.2939587 -0.349308 0.38736033 0.13630156 -0.02425302 -0.05117188 0.021895828
-0.063115574 0.055071138 -0.11238145 -0.316741 0.12652673 -0.3480184 0.14485377 0.12462645
-0.13648368 -0.242454 -0.01797435 0.12865245 0.040812097 0.021650964 -0.06346068 -0.39188713
0.03034574 -0.087250754 -0.16112228 -0.39312086 0.23247546 -0.16772196 -0.44470978 0.039702985
-0.22921158 0.13215703 -0.15143616 -0.030689256 0.0045855595 0.30299172 -0.12034845 0.01921923
-0.10786756 -0.031004827 0.09227737 0.055541825 0.09698965 -0.101446405 -0.18134555 0.06196947
-0.04114911 -0.21271321 0.07463956 -0.12654303 -0.09033142 -0.10758261 0.14664271 -0.10466479
-0.038481228 -0.08883936 -0.09698884 0.07302973 -0.33157882 0.33297518 0.093024425 0.064657696
-0.24782194 -0.026859032 -0.14576803 -0.04328596 -0.048090316 -0.029607989 0.10487096 -0.219432
-0.077673204 -0.0081079565 0.01599652 -0.13049543 -0.13211894 -0.16483018 -0.41993356 -0.010712716
-0.021103997 -0.034258608 -0.118144326 0.32585067 -0.15001954 0.100426495 0.12697113 -0.22555727
-0.14344662 0.020523617 0.039494053 0.27022108 -0.0937198 0.05133654 0.039575636 -0.20904541
-0.108890586 0.09971576 -0.036208354 0.12047859 -0.037320238 -0.05081102 -0.12111854 0.028844299
0.12813321 -0.23293753 0.022319276 0.29780355 -0.16957372 0.0024725297 0.33386385 0.07080391
0.00065211183 -0.07646897 -0.051245954 0.029563515 -0.26382777 0.02325106 0.11751106 -0.25467354
-0.0075346343 0.026234962 -0.34546933 0.019805605 0.06685778 0.026362872 0.10764004 -0.1255569
-0.11899631 0.004747593 0.084515706 0.12796663 0.19566882 -0.019714966 -0.22532937 -0.008844783
-0.35422575 0.08454653 -0.11337624 -0.0125685325 0.2681545 -0.037775327 0.06782747 -0.10193787
-0.16627902 -0.13800701 0.1110045 -0.25886354 0.06734024 0.11253745 -0.20728292 -0.057170566
-0.048876293 -0.19151585 -0.09555495 -0.095979884 -0.012890092 0.05516505 -0.09285183 -0.16508318
0.06321801 0.043979697 0.19420612 0.046676803 -0.105890274 -0.05221415 0.39376932 -0.04267635
-0.03489575 -0.12538138 -0.15412486 0.044199865 -0.037570972 0.15743957 0.109280884 -0.047244143
-0.019463703 -0.0857639 -0.16456668 0.094479665 -0.12464441 -0.15687117 0.10669464 -0.08809369
0.0686477 -0.27750853 -0.039741077 -0.244207 0.034088876 0.028884245 0.12397677 -0.15747508
-0.54635173 0.25084662 -0.118399404 -0.08334763 -0.17605542 -0.17250937 0.03153511 -0.19235487
-0.112605296 -0.17217554 0.08042485 -0.15255497 -0.16022149 0.14907299 0.10958817 -0.01903518
-0.13590232 0.20273662 -0.13375156 0.01615298 0.17166714 -0.10934956 -0.035814162 -0.34354195
0.058661524 -0.14420058 -0.05302814 -0.25226006 -0.031215355 -0.24693286 -0.089348406 -0.19491234
00000000: 501b edbb b333 03be c340 1a3e abbd 55be
00000010: 4320 30be 2fa9 343d d99b 84bd 62ba dbbd
00000020: efea bd3c a426 6dbe 0d65 c6bd 816e 99ba
00000030: 77d6 08bd 1255 23be de2c 7c3d 6213 75be
00000040: cd2f 7b3c 9c08 68bd a057 c43e 7b58 b3bc
00000050: b5bf 3fbe d1f7 44bd 1bbb 4f3d f5bc a5bd
00000060: 5031 273e a859 1ebe 1f76 6ebd bef4 2b3c
00000070: 3e7c f9bc 5f70 08be dae6 a0be 8799 84bd
00000080: 7d7c 8c3d c181 963e 80d8 b2be 1854 c63e
00000090: a392 0b3e 45ae c6bc 9b99 51bd e15e b33c
000000a0: bd42 81bd 4692 613d 3f28 e6bd e02b a2be
000000b0: 3990 013e 782f b2be 8c54 143e 273c ff3d
000000c0: 61c2 0bbe dd45 78be f23e 93bc 78bd 033e
000000d0: 962a 273d 5d5d b13c acf7 81bd 6ea5 c8be
000000e0: a197 f83c 86b0 b2bd 3dfd 24be 2347 c9be
000000f0: 0c0e 6e3e 4ebf 2bbe 00b1 e3be 999f 223d
00000100: 71b6 6abe 2c54 073e 1512 1bbe 0968 fbbc
00000110: 7642 963b bb21 9b3e 4079 f6bd a671 9d3c
00000120: abe9 dcbd d6fd fdbc ebfb bc3d d37f 633d
00000130: 82a2 c63d 22c3 cfbd a6b2 39be b3d3 7d3d
00000140: f88b 28bd 7ed1 59be a0dc 983d 7f94 01be
00000150: aeff b8bd 4554 dcbd 8229 163e 7e5a d6bd
00000160: 7e9e 1dbd 69f1 b5bd 16a2 c6bd 9c90 953d
00000170: b3c4 a9be b97b aa3e 9783 be3d 416b 843d
00000180: 09c5 7dbe 7907 dcbc 3744 15be 9e4c 31bd
00000190: 5afa 44bd 748c f2bc 96c6 d63d c8b2 60be
000001a0: 2113 9fbd 3cd7 04bc 220b 833c 98a0 05be
000001b0: 304a 07be 3ec9 28be 8801 d7be 6384 2fbc
000001c0: 4ae2 acbc c152 0cbd a7f5 f1bd e6d5 a63e
000001d0: b99e 19be 68ac cd3d b804 023e 7cf8 66be
000001e0: ace3 12be 2521 a83c 84c4 213d 6b5a 8a3e
000001f0: 2bf0 bfbd 4446 523d 101a 223d 0010 56be
00000200: 0702 dfbd c737 cc3d 364f 14bd 7bbd f63d
00000210: 1bdd 18bd 371f 50bd ff0c f8bd e14a ec3c
00000220: 5a35 033e 2d87 6ebe ead6 b63c b579 983e
00000230: bca4 2dbe 2a0a 223b 34f0 aa3e a401 913d
00000240: 7cf2 2a3a c39b 9cbd 47e7 51bd 2f2f f23c
00000250: 6f14 87be 0279 be3c a3a9 f03d 9264 82be
00000260: 18e5 f6bb b4ea d63c 5be1 b0be 5d3f a23c
00000270: bbec 883d f3f6 d73c 6272 dc3d fd91 00be
00000280: 56b4 f3bd b291 9b3b 9216 ad3d af09 033e
00000290: 685d 483e 4881 a1bc bebc 66be b5e9 10bc
000002a0: 145d b5be bb26 ad3d cd31 e8bd 3fec 4dbc
000002b0: 8c4b 893e 4dba 1abd 21e9 8a3d cdc4 d0bd
000002c0: 0c45 2abe b651 0dbe 5456 e33d c389 84be
000002d0: aee9 893d 097a e63d f941 54be af2b 6abd
000002e0: 8232 48bd bb1c 44be 50b2 c3bd 1a91 c4bd
000002f0: f730 53bc bff4 613d 1a29 bebd 910b 29be
00000300: 7278 813d 0e24 343d f8dd 463e 2d30 3f3d
00000310: 00dd d8bd 81de 55bd 229c c93e 65cd 2ebd
00000320: d9ee 0ebd fa63 00be e8d2 1dbe eb0a 353d
00000330: 05e4 19bd d737 213e a8ce df3d 1383 41bd
00000340: 5872 9fbc fca4 afbd 2b84 28be 8e7e c13d
00000350: 9245 ffbd d6a2 20be b882 da3d 776a b4bd
00000360: 2a97 8c3d 9915 8ebe 8ac7 22bd 6611 7abe
00000370: c7a0 0b3d a79e ec3c 88e7 fd3d 2641 21be
00000380: b5dd 0bbf f86e 803e 637b f2bd 2ab2 aabd
00000390: df47 34be 4ca6 30be f62a 013d adf8 44be
000003a0: 9b9d e6bd c94e 30be c9b5 a43d 5f37 1cbe
000003b0: 1a11 24be 97a6 183e c36f e03d aaef 9bbc
000003c0: fa29 0bbe 309a 4f3e 2bf6 08be 4153 843c
000003d0: 83c9 2f3e aaf2 dfbd dfb1 12bd bbe4 afbe
000003e0: 1147 703d 51a9 13be 0934 59bd 3b28 81be
000003f0: 58b7 ffbc f8db 7cbe 4cfc b6bd 1a97 47be

actor.2.weight f4 [128, 256]
-0.04460126 0.035478838 -0.03774421 0.15427014 0.029698165 -0.13575102 -0.25886402 -0.032009713
0.22080947 -0.13121393 0.06734677 0.05824498 0.09576126 -0.108012535 0.08230507 -0.0024046458
0.05472516 0.031262323 -0.0005339922 0.032455046 0.007797916 0.00026614525 0.2734393 0.02717901
0.034814022 0.1044739 0.00029891706 0.08853562 0.0020417399 0.079338685 0.15128258 -0.05159653
0.088427424 0.13736765 0.051016737 0.124606416 0.053113755 -0.140364 0.060472347 -0.055429604
0.08735552 -0.055141564 -0.20490885 0.11340153 0.037984625 0.03162173 0.12872973 -0.093714915
-0.11213196 -0.050561808 -0.15615705 -0.031888593 -0.08954478 0.13632376 -0.039849184 0.06406446
0.07527196 -0.058063474 0.07008795 -0.076904565 0.18604554 0.11063471 0.11696318 -0.011505788
-0.087208405 -0.044626176 0.005892184 -0.023204507 0.13566066 0.2783719 -0.17413609 -0.12965703
-0.1168019 -0.000428079 0.0197597 -0.23624235 -0.1864748 -0.2823987 -0.054148234 0.016138606
0.36670327 0.036857605 -0.07510946 0.13050227 0.00442143 -0.0076443385 -0.19960378 0.09282737
-0.12492688 -0.18203926 0.081413865 -0.012040591 -0.032290645 0.042497966 0.29606095 0.0861328
0.03628415 0.023695104 -0.17754346 -0.12352125 -0.11773157 0.08241358 0.06857164 -0.048140075
0.028253336 -0.075867146 -0.13054122 0.13579558 0.035135474 -0.17510691 -0.03316727 0.1199285
0.095190786 -0.0137673905 0.04613275 0.08227454 -0.03176894 0.018238565 0.17083533 -0.15523942
0.08663677 0.26934284 -0.00090914895 0.069433585 -0.057988282 -0.22681856 0.11298366 -0.11541276
-0.053675786 0.19281866 -0.010666269 0.06385439 -0.19929445 0.12034096 0.058265224 -0.0106935175
0.11740919 -0.029440045 0.013632566 0.29460895 0.060441475 -0.1721735 -0.0054215197 0.09369283
-0.15837765 0.19075622 0.01618983 0.031321447 0.08329072 -0.08392592 -0.00267608 -0.04426743
0.20638867 0.0079602385 -0.054997724 0.054090124 0.044276506 -0.031916484 -0.14348544 0.049560554
-0.15489921 0.035595458 0.04142177 0.034634214 -0.11211267 -0.066175945 0.109511435 0.046603043
0.100375816 -0.046806067 0.07776307 0.009402362 0.042465415 0.06825199 0.054177042 0.044228
0.15547809 -0.11586894 -0.13044727 0.084019564 0.06899011 0.032976657 -0.16373745 -0.018836467
0.11472719 0.004925039 -0.09866331 0.02878128 0.06166059 0.060482293 0.07724497 -0.016623551
-0.006590183 0.0407405 0.07550061 0.09464015 -0.023419218 -0.12682894 -0.04390438 -0.17786291
-0.13461383 0.0248785 -0.08729937 0.09071272 -0.19592698 -0.008907657 0.09023994 -0.14583635
-0.06541781 -0.26374567 -0.0008406316 -0.14929713 0.04080122 -0.092273325 0.19599439 0.05103884
0.02185948 -0.10013301 0.22431093 -0.07088311 -0.017333163 0.18845522 0.027151724 -0.04362868
0.115569524 -0.063179 0.015720142 -0.14228821 -0.12000646 0.077835724 0.036836535 0.035347622
-0.0794431 0.07190421 -0.033578824 -0.059893068 0.019779325 0.17809898 -0.09623279 -0.034819625
-0.1523448 0.0057806396 0.025252957 0.14485839 -0.11569965 -0.060939167 0.11496797 0.00079207926
-0.07265256 0.06877883 0.07968276 0.011189041 0.16926226 -0.117235884 -0.11097699 -0.083501756
00000000: d0af 36bd 4252 113d ac99 1abd fef8 1d3e
00000010: 9149 f33c 5102 0bbe d389 84be 9e1c 03bd
00000020: e11b 623e f25c 06be 1aed 893d 4a92 6e3d
00000030: 7b1e c43d ad35 ddbd 8f8f a83d 4397 1dbb
00000040: 7d27 603d ec0c 003d 9cfb 0bba 95ef 043d
00000050: a985 ff3b 6989 8b39 3c00 8c3e 84a6 de3c
00000060: 2699 0e3d 69f6 d53d f8b7 9c39 2a52 b53d
00000070: b6ce 053b 527c a23d d2e9 1a3e e256 53bd
00000080: 7019 b53d 1baa 0c3e edf6 503d a631 ff3d
00000090: cf8d 593d 95bb 0fbe dab1 773d 270a 63bd
000000a0: 73e7 b23d 1fdc 61bd a0d3 51be 103f e83d
000000b0: c495 1b3d ca85 013d bad1 033e 9bed bfbd
000000c0: 71a5 e5bd e619 4fbd a2e7 1fbe 9d9d 02bd
000000d0: 4163 b7bd 7598 0b3e e638 23bd 3a34 833d
000000e0: 2f28 9a3d f7d3 6dbd 458a 8f3d 2480 9dbd
000000f0: b982 3e3e 7394 e23d 648a ef3d c682 3cbc
00000100: 529a b2bd f0c9 36bd 3913 c13b 6117 bebc
00000110: a1ea 0a3e c386 8e3e bb50 32be d0c4 04be
00000120: d635 efbd ca6f e0b9 18df a13c 84e9 71be
00000130: 40f3 3ebe 9096 90be 8aca 5dbd 1c35 843c
00000140: 88c0 bb3e 00f8 163d fdd2 99bd 63a2 053e
00000150: a5e1 903b 5c7d fabb ef64 4cbe 471c be3d
00000160: aad9 ffbd 8068 3abe 50bc a63d e645 45bc
00000170: 3243 04bd 5912 2e3d 4d95 973e 6566 b03d
00000180: b09e 143d 3c1c c23c f4cd 35be b6f8 fcbd
00000190: 401d f1bd 73c8 a83d 4a6f 8c3d 872e 45bd
000001a0: 8a73 e73c 3c60 9bbd 99ac 05be ff0d 0b3e
000001b0: 37ea 0f3d 3a4f 33be 67da 07bd 139d f53d
000001c0: 63f3 c23d 9f90 61bc b2f5 3c3d 8e7f a83d
000001d0: 2620 02bd 0b69 953c 75ef 2e3e 15f7 1ebe
000001e0: 9e6e b13d 4ee7 893e f453 6eba 3233 8e3d
000001f0: 1f85 6dbd 2043 68be fa63 e73d 865d ecbd
00000200: 24db 5bbd 4172 453e 93c1 2ebc 17c6 823d
00000210: d813 4cbe 5275 f63d 84a7 6e3d dd33 2fbc
00000220: 3b74 f03d 402c f1bc 205b 5f3c fcd6 963e
00000230: 7b91 773d 404e 30be 01a7 b1bb 07e2 bf3d
00000240: c02d 22be 9955 433e 89a0 843c eb4a 003d
00000250: 5394 aa3d 5ae1 abbd 2c61 2fbb c451 35bd
00000260: 8d57 533e a96b 023c 4b45 61bd 9b8d 5d3d
00000270: 485b 353d dcba 02bd d9ed 12be 0200 4b3d
00000280: e69d 1ebe 8bcc 113d e0a9 293d 9bdc 0d3d
00000290: 549b e5bd 4187 87bd 8847 e03d d5e2 3e3d
000002a0: d691 cd3d b8b7 3fbd 3f42 9f3d 5d0c 1a3c
000002b0: 37f0 2d3d b3c7 8b3d bfe8 5d3d 6b28 353d
000002c0: a635 1f3e b24c edbd f893 05be 7312 ac3d
000002d0: b04a 8d3d 8812 073d caaa 27be ef4e 9abc
000002e0: 17f6 ea3d 3962 a13b fd0f cabd b8c6 eb3c
000002f0: d18f 7c3d 48bc 773d 9c32 9e3d 1d2e 88bc
00000300: 76f2 d7bb 83df 263d 10a0 9a3d b2d2 c13d
00000310: a9d9 bfbc 72df 01be 14d5 33bd b221 36be
00000320: 35d8 09be ffcd cb3c 03ca b2bd 97c7 b93d
00000330: 15a1 48be 6cf1 11bc b8cf b83d 2056 15be
00000340: c6f9 85bd ac09 87be d55d 5cba 59e1 18be
00000350: 2e1f 273d ccf9 bcbd c1b2 483e 1a0e 513d
00000360: a712 b33c 8912 cdbd c4b1 653e 2a2b 91bd
00000370: 47fe 8dbc 68fa 403e 4b6d de3c fdb3 32bd
00000380: b7af ec3d fe63 81bd 87c7 803c 00b4 11be
00000390: f2c5 f5bd 5668 9f3d e8e1 163d abc8 103d
000003a0: 10b3 a2bd 8442 933d f389 09bd 6f52 75bd
000003b0: 4008 a23c 945f 363e b215 c5bd 069f 0ebd
000003c0: 4600 1cbe 856b bd3b 4adf ce3c c255 143e
000003d0: f0f3 ecbd 599b 79bd 5474 eb3d 8aa3 4f3a
000003e0: deca 94bd eadb 8c3d b730 a33d 3d52 373c
000003f0: 1653 2d3e 5e19 f0bd e747 e3bd f802 abbd

actor.2.bias f4 [128]
-0.087455794 -0.23215161 -0.14485124 -0.20149536 0.009466013 -0.13559504 -0.36383328 0.0004973387
-0.10584568 -0.08949614 -0.062053382 -0.17902905 -0.056540336 -0.124907255 -0.28132865 0.063372545
0.0009695122 -0.023739804 -0.066770725 -0.03190876 -0.11681533 -0.053297974 -0.0831319 -0.06023332
0.021196663 0.030545425 -0.17522727 -0.017769795 -0.17488806 -0.056339037 -0.17252006 -0.097309895
-0.10123275 -0.0024212494 -0.1944075 -0.016328152 -0.16309728 -0.11529498 -0.020068513 -0.16755053
-0.060725365 -0.24499276 -0.07647954 -0.02524426 -0.04307451 -0.028964125 -0.09402158 -0.10121609
-0.038519442 0.036976818 -0.095287405 -0.06607112 -0.15541574 -0.27315584 -0.114449516 -0.04588764
-0.045744233 -0.024856664 -0.1402134 -0.027333912 -0.06710554 -0.0806839 -0.023822075 0.008875558
-0.009479956 0.053090118 0.09348846 -0.09658775 -0.1663512 -0.10444408 -0.03688136 -0.1580162
-0.036596764 0.086830616 -0.007651435 -0.06393431 -0.110224806 -0.03693107 -0.056175 -0.047297835
-0.044411507 1.658148e-05 -0.35471907 -0.005833891 -0.024059065 0.06671383 -0.1958652 -0.10668461
0.024890976 -0.08387863 -0.09422301 -0.17342009 -0.036907386 0.019991865 0.017635925 0.21669805
-0.08790309 -0.1026999 -0.062827826 -0.01091052 -0.11164103 -0.019438779 -0.09967259 -0.21041285
-0.07604501 0.012941118 -0.0029285157 -0.21642236 -0.03349967 -0.07989773 -0.07314581 -0.12277084
-0.098178975 -0.0039024195 -0.06606892 -0.046357054 -0.050116077 -0.17397933 -0.01058933 0.05479109
-0.021435013 -0.050328597 0.022259217 0.0031051743 -0.0071339523 -0.10654475 0.01033605 -0.082811266
00000000: 061c b3bd 27b9 6dbe e253 14be cd54 4ebe
00000010: 5617 1b3c 6dd9 0abe 5b48 babe d65f 023a
00000020: 9fc5 d8bd c149 b7bd b02b 7ebd 6453 37be
00000030: d796 67bd 60cf ffbd 4f0a 90be 77c9 813d
00000040: dd26 7e3a fa79 c2bc 17bf 88bd c3b2 02bd
00000050: e03c efbd fa4e 5abd 0f41 aabd 37b7 76bd
00000060: a0a4 ad3c 663a fa3c c76e 33be f691 91bc
00000070: db15 33be c3c3 66bd 19a9 30be 694a c7bd
00000080: 1e53 cfbd d3ad 1ebb c212 47be 9ec2 85bc
00000090: f902 27be c61f ecbd b966 a4bc 5e92 2bbe
000000a0: 29bb 78bd 62df 7abe 4ea1 9cbd 0dcd cebc
000000b0: e66e 30bd 2c46 edbc 638e c0bd 624a cfbd
000000c0: 90c6 1dbd 0175 173d 0b26 c3bd 4c50 87bd
000000d0: 4e25 1fbe 15db 8bbe 8264 eabd aef4 3bbd
000000e0: 4e5e 3bbd 34a0 cbbc 1a94 0fbe 5eeb dfbc
000000f0: a16e 89bd 9a3d a5bd 8326 c3bc ca6a 113c
00000100: d151 1bbc 0675 593d e176 bf3d cccf c5bd
00000110: f857 2abe c7e6 d5bd e910 17bd 00cf 21be
00000120: 7de6 15bd 40d4 b13d e4b8 fabb feef 82bd
00000130: 8bbd e1bd 0945 17bd c217 66bd 60bb 41bd
00000140: d7e8 35bd 7518 8b37 bd9d b5be 3a2a bfbb
00000150: 8417 c5bc 43a1 883d e390 48be 767d dabd
00000160: 29e8 cb3c 8fc8 abbd fef7 c0bd 0995 31be
00000170: 332c 17bd fbc5 a33c 3779 903c 18e6 5d3e
00000180: 8906 b4bd 5354 d2bd e0ab 80bd 0ac2 32bc
00000190: 0da4 e4bd 133e 9fbc 2521 ccbd 7776 57be
000001a0: 7cbd 9bbd fc06 543c 57ec 3fbb d39d 5dbe
000001b0: f336 09bd 6ca1 a3bd 78cd 95bd 476f fbbd
000001c0: 0f12 c9bd bcbf 7fbb 244f 87bd e5e0 3dbd
000001d0: 8446 4dbd a327 32be df7e 2dbc 9f6c 603d
000001e0: 7b98 afbc 5c25 4ebd f658 b63c 2e80 4b3b
000001f0: eec3 e9bb 2234 dabd 8958 293c f498 a9bd

actor.4.weight f4 [64, 128]
-0.14919192 0.09115134 0.0069643515 0.097476415 -0.2606997 0.029020803 0.051262207 0.12647215
0.05482765 -0.001009031 0.08116929 0.05333001 -0.10378191 0.12367362 -0.02619665 -0.08394396
0.08687318 -0.0949654 0.0464721 -0.07130486 0.02709869 0.029179072 -0.15529548 0.12289971
-0.15400063 -0.030996175 0.13375007 -0.29645088 0.004140497 0.10333765 0.17470582 0.26974985
0.008847303 -0.06664243 0.17595747 -0.059024774 -0.13231026 0.06940058 -0.034111794 -0.04356134
0.046248373 0.0033332238 0.02207714 -0.025781902 -0.33773103 0.0021355313 0.020591367 0.18472067
-0.049195092 0.03404605 -0.038846076 -0.07886653 0.00917385 -0.06678541 0.06503389 -0.1492391
0.0050571817 -0.08632651 0.032714438 0.08979598 -0.10922165 0.10183275 -0.0008570553 0.009128943
-0.013850951 -0.26726207 0.057653137 0.06760761 -0.12070351 -0.041172016 0.03461143 -0.11881748
0.13564868 0.05193747 -0.27722207 0.0053827525 -0.0807979 0.041560788 -0.07022214 0.04916825
0.07785796 0.0700331 0.06627327 -0.13906775 0.06016208 0.14255147 0.046668366 -0.09390554
0.014224226 0.045066636 0.04906671 0.09483707 0.057387378 0.09531322 0.04839934 0.12653235
0.011373443 -0.09040163 -0.19799998 0.065739535 -0.13095476 0.046064705 -0.029151173 0.01595056
0.14529715 -0.032065287 0.10675712 0.08840331 -0.08516212 0.06807731 -0.035895485 -0.0115513895
-0.14244238 -0.15555058 -0.05118212 -0.13971207 0.03211748 -0.09419711 -0.0654994 -0.021320121
-0.011118424 0.11644139 0.035674453 -0.004214757 -0.058671717 0.14667052 0.0089333365 0.15826972
0.0408419 0.050114885 0.01593843 0.2664215 -0.26270235 0.012397844 0.2990307 0.1622278
-0.13535433 0.167217 0.018578755 0.2754362 0.035513468 0.1324401 -0.032396782 0.032601688
0.09652915 -0.03146226 0.037873257 -0.06639076 0.13221566 -0.124983385 -0.17513266 0.2538089
-0.06597608 -0.2263936 0.09419875 -0.18186586 0.049028467 -0.020476064 0.03685949 0.098429196
0.1956855 -0.3399519 0.004572318 0.0022342703 -0.013658035 0.008554308 -0.016944177 0.16406728
0.28574124 -0.32732856 -0.22262332 -0.11408254 0.116604336 0.10787843 -0.09958691 0.0021924307
-0.030570386 -0.21175787 -0.08674925 0.21323223 -0.012006252 -0.227372 0.17798166 -0.22220767
0.19679134 0.21238305 0.13752352 0.14696492 -0.23453465 0.1704566 -0.00085665076 -0.04010722
-0.19450179 0.026740426 -0.08768395 0.3547615 -0.17480917 -0.04485724 0.0089983335 0.10964745
0.11472542 -0.17622386 -0.30149776 0.23096429 0.19051601 0.090255834 -0.1190361 0.015236467
0.16048448 -0.026341466 0.12681709 -0.14560702 -0.04930243 0.16520903 0.028017368 -0.15169679
0.16683397 0.13458706 0.052583158 0.19088864 0.053153984 -0.051619954 -0.0561262 0.15941247
-0.06819835 -0.05715778 -0.051623564 -0.034322128 -0.3732856 0.20283751 -0.19240735 0.39614984
-0.048266765 0.07698189 -0.27884015 0.09535061 0.032465428 -0.010053606 0.18292311 0.026440635
0.2482858 -0.10383033 0.059003644 0.19003005 0.13866153 -0.23483258 0.25084737 0.11742231
0.019854244 0.035922874 -0.21463637 0.012711864 0.19174336 -0.101812035 -0.116578095 0.016938252
00000000: c4c5 18be 8ead ba3d 3735 e43b b7a1 c73d
00000010: 6e7a 85be 09bd ed3c 52f8 513d ea81 013e
00000020: f592 603d 7641 84ba 163c a63d 9270 5a3d
00000030: 9c8b d4bd 9848 fd3d 5b9a d6bc d0ea abbd
00000040: 91ea b13d 387d c2bd 8759 3e3d 4808 92bd
00000050: 12fe dd3c f308 ef3c c705 1fbe d8b2 fb3d
00000060: 57b2 1dbe b1eb fdbc c7f5 083e 69c8 97be
00000070: 02ad 873b b1a2 d33d 15e6 323e a71c 8a3e
00000080: 47f4 103c d47b 88bd 322e 343e f6c3 71bd
00000090: 577c 07be e421 8e3d cfb8 0bbd 606d 32bd
000000a0: ef6e 3d3d 3772 5a3b 1edb b43c 9134 d3bc
000000b0: 15eb acbe 45f4 0b3b 3aaf a83c 6a27 3d3e
000000c0: cb80 49bd df73 0b3d 101d 1fbd c684 a1bd
000000d0: ea4d 163c cac6 88bd 7d30 853d 22d2 18be
000000e0: b7b6 a53b f4cb b0bd 93ff 053d f4e6 b73d
000000f0: 9aaf dfbd b08d d03d 02ac 60ba 9091 153c
00000100: 19ef 62bc 93d6 88be b225 6c3d dc75 8a3d
00000110: 6733 f7bd fda3 28bd b7c4 0d3d 9456 f3bd
00000120: 7de7 0a3e 62bc 543d 0df0 8dbe cd61 b03b
00000130: 5f79 a5bd a53b 2a3d a0d0 8fbd a664 493d
00000140: fe73 9f3d 846d 8f3d 48ba 873d c767 0ebe
00000150: 836c 763d 03f9 113e 5427 3f3d 8c51 c0bd
00000160: ba0c 693c cb97 383d 2dfa 483d f039 c23d
00000170: 070f 6b3d 9433 c33d 633e 463d b291 013e
00000180: ad57 3a3c 7d24 b9bd 82c0 4abe 73a2 863d
00000190: 0119 06be 58ae 3c3d 71ce eebc c0aa 823c
000001a0: c7c8 143e e456 03bd 7aa3 da3d cb0c b53d
000001b0: 7a69 aebd 1e6c 8b3d 2507 13bd 0a42 3dbc
000001c0: 6adc 11be a748 1fbe 58a4 51bd ae10 0fbe
000001d0: 9e8d 033d 6aea c0bd 8d24 86bd 89a7 aebc
000001e0: 0d2a 36bc d378 ee3d 601f 123d f21b 8abb
000001f0: c151 70bd cc30 163e 215d 123c 7511 223e
00000200: d649 273d 4445 4d3d 4f91 823c 6668 883e
00000210: ec80 86be 5420 4b3c 8d1a 993e 0b1f 263e
00000220: 539a 0abe ef3a 2b3e 7932 983c f905 8d3e
00000230: 9276 113d 619e 073e 7db2 04bd 5989 053d
00000240: 13b1 c53d 92de 00bd fd20 1b3d e1f7 87bd
00000250: 8b63 073e 4af7 ffbd fa55 33be 3df3 813e
00000260: 781e 87bd b9d3 67be 46eb c03d 0b3b 3abe
00000270: 13d2 483d 6bbd a7bc faf9 163d 3f95 c93d
00000280: c861 483e 2d0e aebe 62d3 953b d66c 123b
00000290: f3c5 5fbc 5e27 0c3c 84ce 8abc 4101 283e
000002a0: ad4c 923e 9c97 a7be 5ef7 63be 1ba4 e9bd
000002b0: 41ce ee3d 5eef dc3d 39f4 cbbd e2ae 0f3b
000002c0: bf6e fabc 0ed7 58be 97a9 b1bd 8d59 5a3e
000002d0: dfb5 44bc 35d4 68be d340 363e 688a 63be
000002e0: ab83 493e f17a 593e f7d2 0c3e f97d 163e
000002f0: da29 70be 2d8c 2e3e dc90 60ba 7847 24bd
00000300: 7a2b 47be bd0e db3c a593 b3bd 4da3 b53e
00000310: 2d01 33be 3abc 37bd bf6d 133c d88e e03d
00000320: 29f5 ea3d 0774 34be ea5d 9abe e781 6c3e
00000330: a116 433e 0dd8 b83d 33c9 f3bd 60a2 793c
00000340: 0b56 243e 0fca d7bc 57dc 013e 021a 15be
00000350: 58f1 49bd 8e2c 293e ae84 e53c 6756 1bbe
00000360: 86d6 2a3e 31d1 093e 7061 573d 5078 433e
00000370: feb7 593d 726f 53bd 96e4 65bd 063d 233e
00000380: 94ab 8bbd 471e 6abd 3b73 53bd 5c95 0cbd
00000390: 4a1f bfbe a3b4 4f3e 6f06 45be 27d4 ca3e
000003a0: 5fb3 45bd aea8 9d3d 23c4 8ebe 2e47 c33d
000003b0: 78fa 043d e1b7 24bc 3250 3b3e 089a d83c
000003c0: a23e 7e3e ffa4 d4bd cead 713d 3d97 423e
000003d0: 4afd 0d3e f477 70be 116f 803e 1c7b f03d
000003e0: 5ea5 a23c dd23 133d a3c9 5bbe 6c45 503c
000003f0: 5f58 443e d482 d0bd 7fc0 eebd 17c2 8a3c

actor.4.bias f4 [64]
-0.12292078 -0.143007 -0.085835226 -0.12916097 -0.13351792 -0.095141955 0.028752787 -0.016930465
-0.2847895 -0.034199696 -0.19237503 -0.012826928 -0.04505204 -0.0783789 -0.01204829 -0.08488498
-0.02821777 -0.043319315 0.04213633 -0.086753316 -0.07074395 0.029661393 0.030709367 -0.24145538
-0.065718815 -0.06691311 -0.011893775 0.05178937 -0.061619446 -0.033187408 -0.1289132 0.002721979
0.06014487 -0.051860932 -0.013088018 -0.103025764 -0.105138525 -0.11651256 -0.1050257 -0.123120144
-0.12541808 -0.060548738 -0.043783795 -0.021189451 -0.10308811 -0.029437745 0.0087763835 -0.025450347
-0.10895366 -0.061414946 -0.07875479 -0.038255274 -0.035643715 0.0025382023 0.006026111 -0.023299025
-0.049723744 -0.05368627 0.0317027 0.07601643 -0.01840998 -0.047785003 -0.09466271 -0.010802396
00000000: e4bd fbbd 6d70 12be 61ca afbd c642 04be
00000010: ecb8 08be c9d9 c2bd f78a eb3c c2b1 8abc
00000020: eecf 91be fb14 0cbd f6fd 44be 0928 52bc
00000030: 7d88 38bd 1e85 a0bd 3166 45bc 2dd8 adbd
00000040: f428 e7bc 986f 31bd 2597 2c3d b9ab b1bd
00000050: 34e2 90bd 73fc f23c 3692 fb3c 1440 77be
00000060: 9697 86bd be09 89bd 1cde 42bc 1721 543d
00000070: ac64 7cbd 85ef 07bd d201 04be 3b63 323b
00000080: 785a 763d 216c 54bd 206f 56bc 2cff d2bd
00000090: de52 d7bd 239e eebd b717 d7bd 6a26 fcbd
000000a0: 996d 00be f401 78bd a356 33bd 8095 adbc
000000b0: dc1f d3bd 6d27 f1bc d2ca 0f3c 3f7d d0bc
000000c0: 1923 dfbd 3d8e 7bbd 314a a1bd 90b1 1cbd
000000d0: 25ff 11bd f857 263b af76 c53b 99dd bebc
000000e0: 20ab 4bbd 22e6 5bbd b1da 013d 81ae 9b3d
000000f0: 87d0 96bc 35ba 43bd 86de c1bd 88fc 30bc

actor.6.weight f4 [1, 64]
-0.023048997 0.06042197 -0.0001255376 0.020503856 0.032208767 -0.027523719 0.0066910996 0.0022202327
-0.008366319 -0.0024351766 -0.026764413 -0.0016068555 0.024090558 0.0033141293 0.008595811 0.0065332893
-0.0018368118 0.0014272444 0.0028276562 0.0008134066 0.006661468 -0.0063123177 0.008896095 0.0077468273
-0.015573447 0.0061352947 0.101645924 0.015017055 0.0047271717 -0.010332895 -0.008512875 -0.0020068
-0.015999552 -0.0057863626 -0.018383078 -0.06675935 0.031189855 -0.013945672 -0.0021723933 0.08221657
-0.005058737 0.00037614116 0.014699803 -0.020174392 -0.008868974 -0.0015234591 -0.032715913 -0.036736492
-0.05327694 -0.006463869 0.0141021535 -0.033954352 0.0062388564 0.029933318 0.0066633294 -0.004214544
-0.046599206 -0.015029307 0.13488497 -0.0022378282 0.0054495125 -0.043349247 0.009128907 0.00970678
00000000: 40d1 bcbc 077d 773d bea2 03b9 b4f7 a73c
00000010: 57ed 033d 6c79 e1bc 0341 db3b 5381 113b
00000020: e312 09bc 7c97 1fbb 0b41 dbbc 209d d2ba
00000030: 9059 c53c dd31 593b 72d5 0c3c 3415 d63b
00000040: 2dc1 f0ba 6012 bb3a 3350 393b cb3a 553a
00000050: 7248 da3b 8fd7 cebb edc0 113c 19d9 fd3b
00000060: c527 7fbc 950a c93b bd2b d03d 180a 763c
00000070: 64e6 9a3b 4e4b 29bc 9679 0bbc 8484 03bb
00000080: 7e11 83bc 879b bdbb 1c98 96bc 20b9 88bd
00000090: de81 ff3c 637c 64bc b65e 0ebb 2961 a83d
000000a0: c3c3 a5bb d034 c539 71d7 703c c444 a5bc
000000b0: 2c4f 11bc ceae c7ba 1f01 06bd 0179 16bd
000000c0: ec38 5abd ddce d3bb b80c 673c b813 0bbd
000000d0: 526f cc3b b836 f53c 0f58 da3b 281a 8abb
000000e0: cfde 3ebd 7c3d 76bc 491f 0a3e 87a8 12bb
000000f0: d391 b23b fb8e 31bd 6991 153c 3009 1f3c
